my_iris_model.pt (torch, 3076 bytes, 6 tensors)

fc1.weight f4 [8, 4]
0.12120272 -0.43858063 -0.46196023 -0.04377714 -0.3870318 0.07934177 0.14807653 -0.4770878
0.37200075 0.08959423 0.5770315 -0.046948005 0.7633122 0.64908844 -0.44076964 -1.3607498
0.35093278 -0.64580494 0.81756365 0.94950527 0.4722314 0.94461465 -0.74876416 -1.1533264
0.16464484 -0.111353755 -0.42134798 -0.3553493 -0.31912696 0.14395738 -0.3496034 0.22803837
00000000: 2239 f83d a48d e0be 0d86 ecbe a94f 33bd
00000010: 0829 c6be f07d a23d 60a1 173e da44 f4be
00000020: e276 be3e 2e7d b73d 56b8 133f 8d4c 40bd
00000030: 6e68 433f a92a 263f 8fac e1be 0d2d aebf
00000040: 76ad b33e 7953 25bf da4b 513f c712 733f
00000050: 50c8 f13e 44d2 713f 02af 3fbf 33a0 93bf
00000060: a898 283e 700d e4bd ecba d7be 58f0 b5be
00000070: 9c64 a3be 9069 133e 38ff b2be e482 693e

fc1.bias f4 [8]
0.18592794 -0.20286602 0.67056423 0.7742341 -0.16367942 0.7040102 -0.31223232 0.3780589
00000000: e563 3e3e 1cbc 4fbe 19aa 2b3f 3534 463f
00000010: 949b 27be 033a 343f eadc 9fbe f090 c13e

fc2.weight f4 [9, 8]
-0.2174119 0.08211542 0.103772804 -0.35320014 -0.4184537 0.10016554 -0.3494075 -0.263886
0.17287815 -0.118529834 0.83472246 -0.094088495 0.5682008 -0.6715607 0.06991243 -0.32654905
-0.35453233 -0.2716259 0.13476148 -0.56682307 0.64311963 -0.777363 0.30476496 -0.21013083
-0.073686 -0.060686782 0.17709714 -0.041766237 -0.13243043 -0.11844292 -0.30017546 -0.11276427
0.12669124 -0.19118746 0.11752631 -0.7309348 0.80551517 -0.3095634 -0.20340693 0.011390438
-0.019687466 0.062685594 -0.22976097 -0.22057456 -0.051930565 -0.2718181 0.039374597 -0.1807519
-0.25719464 -0.017445719 0.31908345 0.07613667 0.79259706 -0.577766 -0.11047747 -0.062431537
-0.12987092 -0.34292972 0.62724036 0.5161833 -0.18595211 0.91574067 -0.35234165 0.31245807
-0.337548 -0.20817648 0.12271699 -0.16029732 -0.17696401 -0.31101653 0.10800252 0.2850211
00000000: 3aa1 5ebe 212c a83d d686 d43d a6d6 b4be
00000010: 903f d6be 9723 cd3d 8ae5 b2be 111c 87be
00000020: f806 313e c5bf f2bd 5fb0 553f 78b1 c0bd
00000030: 9c75 113f 67eb 2bbf 402e 8f3d 7031 a7be
00000040: 4385 b5be 8d12 8bbe eafe 093e 511b 11bf
00000050: 7da3 243f 4301 47bf 270a 9c3e 892c 57be
00000060: b0e8 96bd b492 78bd f458 353e 1313 2bbd
00000070: d89b 07be 3492 f2bd 99b0 99be f4f0 e6bd
00000080: 59bb 013e a5c6 43be a2b1 f03d 8b1e 3bbf
00000090: 3e36 4e3f 187f 9ebe e849 50be f69e 3a3c
000000a0: 9c47 a1bc 4e61 803d 7646 6bbe 4cde 61be
000000b0: 25b5 54bd be2b 8bbe 4247 213d 0717 39be
000000c0: 04af 83be 53ea 8ebc e85e a33e 8bed 9b3d
000000d0: a4e7 4a3f 79e8 13bf 0342 e2bd 36b8 7fbd
000000e0: e2fc 04be 7c94 afbe d392 203f 9724 043f
000000f0: 3b6a 3ebe fb6d 6a3f 2066 b4be 81fa 9f3e
00000100: 17d3 acbe 372c 55be 0c53 fb3d fb24 24be
00000110: 0e36 35be 8f3d 9fbe 6d30 dd3d 49ee 913e

fc2.bias f4 [9]
0.018041648 0.510083 -0.6752715 -0.44346106 -0.5684042 -0.03585626 0.016096676 0.4785549
-0.02870354
00000000: 14cc 933c cd94 023f 98de 2cbf 540d e3be
00000010: f082 11bf 04de 12bd 2ddd 833c 2605 f53e
00000020: b023 ebbc

out.weight f4 [3, 9]
-0.1387661 -0.52687675 -0.15695544 -0.037399653 -0.73666316 0.22666268 -0.54210347 0.63437134
0.2902212 0.09919227 0.50846845 -0.9521252 -0.1345769 -0.5924552 0.2718482 0.37713742
0.09059367 0.20540492 -0.19344826 0.24978252 0.63167685 -0.03728076 0.69539005 -0.32192153
0.7714824 -1.004385 -0.087775744
00000000: b318 0ebe 65e1 06bf edb8 20be 6130 19bd
00000010: f595 3cbf 431a 683e 4bc7 0abf 2966 223f
00000020: e097 943e 5125 cb3d fd2a 023f 7abe 73bf
00000030: 87ce 09be 25ab 17bf b02f 8b3e 2818 c13e
00000040: 2d89 b93d ab55 523e 4d17 46be fdc6 7f3e
00000050: 93b5 213f b6b3 18bd 1505 323f e6d2 a4be
00000060: df7f 453f b08f 80bf c5c3 b3bd

out.bias f4 [3]
0.57179016 -0.27666742 -0.6040026
00000000: d760 123f 5aa7 8dbe ea9f 1abf
