TaxiModel.pt (torch, 113478 bytes, 20 tensors)

embeds.0.weight f4 [24, 12]
0.44869015 -0.11383115 -0.52587104 0.56477666 0.7570249 -0.5396237 1.3664083 0.11581805
-1.1828853 1.2360331 0.4557018 -0.20427753 -0.011757541 -1.3545831 0.088528365 0.67996323
-0.5866289 -1.3446053 1.0662293 -0.5791107 0.19147943 1.2083279 -0.6539572 0.5445107
0.30054444 -1.1193393 -0.48887688 0.37873173 -0.26734188 -0.67950255 -1.3440864 -1.0325651
-0.9010674 0.30273318 -0.9232291 0.70953107 -1.1460716 -0.32560512 -1.052643 1.375157
-0.2912701 0.28423604 0.44640103 0.87672013 0.5763916 0.13089448 0.09504361 -0.17838639
-1.0372144 -0.8903002 1.4369347 -1.267935 -0.33355933 -1.4800438 -0.3776766 1.1792959
0.027082168 -0.6640411 0.74682736 0.47580147 0.27017576 -0.18904372 0.7218695 -2.6137764
-0.17157368 -2.2637422 -1.7305965 0.0065599526 -1.0553721 0.66415995 0.22114074 0.77090245
0.25726402 1.1238989 0.6237614 -0.6275716 -0.5365678 -0.61475503 0.5608645 -0.14080733
1.558357 -1.3049175 -0.07553457 1.2019929 1.7452488 -0.106218114 0.106688194 -1.1101134
-0.72272116 0.004184696 0.61019284 -1.2504297 -0.6075762 -0.9493982 -0.44172755 -1.0925833
-0.6138647 -0.9396758 2.6613338 1.3943582 -0.00856137 -0.624514 -0.51633906 0.20608297
0.52479404 1.2629327 0.5124916 -0.5708765 1.0454867 0.11070498 1.1140343 -0.039675854
-1.3064183 0.5866269 -0.25843343 -1.0326895 0.88719535 1.5062828 -1.3167002 0.16758657
-0.31405163 1.5274168 -0.337974 -0.2650144 0.5687965 -0.83789426 -0.9287919 0.68181616
0.52736527 -0.52864647 -1.7776959 -0.57826686 0.37207943 0.8738958 -0.76443195 1.837038
0.80547214 0.9921103 0.91005087 -0.9553505 -1.2952169 -2.0082538 -0.10202202 -0.6190473
-1.4296573 -0.20964499 0.8626467 0.8585014 -0.050114725 1.1212132 -0.9889849 2.2242742
-0.2885771 0.39434 1.2719039 -1.4218526 1.7833277 0.32070214 -0.70023453 -0.9513635
-0.9282261 -0.0905475 0.22807996 0.4094801 -0.100580856 0.009952724 -1.6682439 -1.574619
0.20168373 -1.3949019 1.063415 0.9575883 -1.7189357 -0.0040917643 1.3767878 -0.2840128
-1.1124496 0.41561055 1.1310829 -0.8174664 -0.05638939 -0.23792623 0.0078344885 0.20623586
0.8531968 1.0019385 -0.06484554 -1.9376466 0.19766285 -0.83141667 -1.6210687 -0.7445295
-1.4286498 -1.3954741 -0.50628 -1.3902507 -0.9417135 0.041288547 1.176892 1.7262534
-0.02708733 0.23322536 -0.42169946 -0.40966502 -0.42757395 -2.086186 -0.95350057 -1.2303424
0.23308977 0.40839154 -1.5696912 -0.12664442 -0.7622766 -0.4241166 -0.33003378 1.2617989
-1.7040813 -0.77673805 -0.474118 -0.9985936 0.79086846 -0.37244487 0.49801284 -0.036342837
-1.0177562 0.114839114 -1.087763 -0.9584031 -1.5087527 0.30574462 -0.9162 -0.29002255
0.38442972 0.096273646 1.9918307 -0.21965595 1.3492433 -0.4399017 -0.030960668 1.2378929
-1.8437449 -0.57621896 -0.046125505 -0.5979188 -0.24582064 -0.048439145 -0.54218394 -2.553087
0.48222855 0.55167437 -0.8655912 0.9973254 -1.2115263 -0.24170393 -1.16507 -0.27598894
00000000: b7ba e53e 4e20 e9bd 7c9f 06bf 3495 103f
00000010: 62cc 413f c724 0abf 78e6 ae3f 0432 ed3d
00000020: c968 97bf 5536 9e3f bf51 e93e 212e 51be
00000030: b4a2 40bc fb62 adbf 5c4e b53d 1212 2e3f
00000040: 502d 16bf 071c acbf 347a 883f 9940 14bf
00000050: 2f13 443e 7daa 9a3f bd69 27bf 0e65 0b3f
00000060: f6e0 993e 8346 8fbf 124e fabe 20e9 c13e
00000070: 09e1 88be e1f3 2dbf 060b acbf 182b 84bf
00000080: 5aac 66bf d8ff 9a3e be58 6cbf d4a3 353f
00000090: 79b2 92bf b7b5 a6be 01bd 86bf 2505 b03f
000000a0: 5b21 95be 6387 913e ad8e e43e bb70 603f
000000b0: 668e 133f 3409 063e 39a6 c23d ecaa 36be
000000c0: 71c3 84bf b7ea 63bf 7aed b73f b24b a2bf
000000d0: 4ac8 aabe 1372 bdbf d45e c1be 2bf3 963f
000000e0: 6cdb dd3c 99fe 29bf 1430 3f3f 409c f33e
000000f0: 7a54 8a3e ad94 41be 71cc 383f 1d48 27c0
00000100: 03b1 2fbe 27e1 10c0 3084 ddbf dff4 d63b
00000110: 6f16 87bf 6306 2a3f b872 623e dd59 453f
00000120: 1cb8 833e ebdb 8f3f d4ae 1f3f 88a8 20bf
00000130: 825c 09bf 9660 1dbf d194 0f3f cc2f 10be
00000140: 3e78 c73f 8907 a7bf deb1 9abd e7da 993f
00000150: 5064 df3f e288 d9bd 577f da3d 3218 8ebf
00000160: 4104 39bf c61f 893b 9935 1c3f 150e a0bf
00000170: 1d8a 1bbf c30b 73bf 1d2a e2be c5d9 8bbf
00000180: 3d26 1dbf 988e 70bf 4b53 2a40 547a b23f
00000190: fd44 0cbc 26e0 1fbf cc2e 04bf 6a07 533e
000001a0: e758 063f c7a7 a13f a632 033f f624 12bf
000001b0: 82d2 853f 4bb9 e23d ad98 8e3f 2683 22bd
000001c0: b738 a7bf 2e2d 163f 6351 84be 2b2f 84bf
000001d0: 3c1f 633f e0cd c03f a289 a8bf d09b 2b3e
000001e0: 60cb a0be 6582 c33f ee0a adbe f8af 87be
000001f0: a69c 113f 3d80 56bf 4ec5 6dbf 818b 2e3f
00000200: 6901 073f 6055 07bf 8a8b e3bf 4c09 14bf
00000210: 3281 be3e a3b7 5f3f d0b1 43bf 1024 eb3f
00000220: 6c33 4e3f f1fa 7d3f 18f9 683f da91 74bf
00000230: abc9 a5bf 3b87 00c0 ecf0 d0bd e279 1ebf
00000240: 03ff b6bf 2dad 56be 6ad6 5c3f bfc6 5b3f
00000250: 1945 4dbd ea83 8f3f 1d2e 7dbf 825a 0e40
00000260: 61c0 93be efe6 c93e bfcd a23f 44ff b5bf
00000270: 1544 e43f 1233 a43e 9242 33bf 8f8c 73bf
00000280: 3aa0 6dbf f870 b9bd cb8d 693e 60a7 d13e
00000290: 56fd cdbd c010 233c 0489 d5bf 1e8d c9bf
000002a0: 2e86 4e3e 258c b2bf fc1d 883f 8224 753f
000002b0: 1606 dcbf 3514 86bb 953a b03f 206a 91be
000002c0: c064 8ebf e8ca d43e 53c7 903f 7a45 51bf
000002d0: 90f8 66bd efa2 73be 3a5c 003c 7e2f 533e
000002e0: 1b6b 5a3f 853f 803f bdcd 84bd ce04 f8bf
000002f0: 2168 4a3e b9d7 54bf 2e7f cfbf 7c99 3ebf
00000300: ffdd b6bf e59e b2bf 919b 01bf bcf3 b1bf
00000310: 2314 71bf 2e1e 293d 66a4 963f dff5 dc3f
00000320: 40e6 ddbc a1d2 6e3e fee8 d7be 9dbf d1be
00000330: f9ea dabe 1284 05c0 9d18 74bf dc7b 9dbf
00000340: 16af 6e3e b218 d13e a4eb c8bf 13af 01be
00000350: 8f24 43bf d025 d9be 30fa a8be a082 a13f
00000360: 561f dabf 4ed8 46bf 98bf f2be d5a3 7fbf
00000370: 5b76 4a3f 18b1 bebe 8afb fe3e 3adc 14bd
00000380: d645 82bf c530 eb3d d13b 8bbf e859 75bf
00000390: cf1e c1bf 8f8a 9c3e 158c 6abf d67d 94be
000003a0: f9d3 c43e 1e2b c53d 4ff4 fe3f 7ded 60be
000003b0: 01b4 ac3f cc3a e1be 3aa1 fdbc 4673 9e3f
000003c0: d5ff ebbf 1683 13bf 19ee 3cbd 3511 19bf
000003d0: 68b8 7bbe 2068 46bd 91cc 0abf c765 23c0
000003e0: a9e6 f63e 883a 0d3f 6397 5dbf b850 7f3f
000003f0: 4b13 9bbf 3c81 77be 0421 95bf 6c4e 8dbe

embeds.1.weight f4 [2, 1]
-0.14430453 0.2902296
00000000: 91c4 13be f998 943e

embeds.2.weight f4 [7, 4]
0.21994814 0.29215413 0.8222559 -1.7577044 0.45014754 -0.7446052 1.1629245 0.3555128
1.5230393 -1.3589959 -1.4706156 0.44491854 0.6458752 -0.278047 -1.9894772 -1.6464945
-0.5514376 -0.35501063 1.5864815 0.54776984 1.5823799 -0.54095244 -1.2596802 -0.35469475
0.7484291 -0.7828506 -0.5501955 0.12791033
00000000: 163a 613e 3a95 953e 5d7f 523f 75fc e0bf
00000010: bd79 e63e 729e 3ebf b6da 943f c605 b63e
00000020: f4f2 c23f 94f3 adbf 223d bcbf 5dcc e33e
00000030: 1458 253f 2d5c 8ebe 30a7 febf 55c0 d2bf
00000040: 042b 0dbf f4c3 b5be d311 cb3f a53a 0c3f
00000050: 6d8b ca3f dc7b 0abf 333d a1bf 8d9a b5be
00000060: 0d99 3f3f e668 48bf 9dd9 0cbf edfa 023e

bn_cont.weight f4 [6]
1.0810608 0.9899072 1.1218933 1.0073471 0.84006315 1.1146091
00000000: 3360 8a3f 8f6a 7d3f 339a 8f3f c0f0 803f
00000010: 610e 573f 83ab 8e3f

bn_cont.bias f4 [6]
-0.14249709 0.092748925 -0.022691883 0.05776167 -0.109334044 -0.17854731
00000000: c2ea 11be 26f3 bd3d 54e4 b9bc 8097 6c3d
00000010: 87ea dfbd 1bd5 36be

bn_cont.running_mean f4 [6]
-73.97635 40.751434 -73.97428 40.751896 1.3483123 3.31255
00000000: e4f3 93c2 7801 2342 d5f2 93c2 f101 2342
00000010: 7f95 ac3f d200 5440

bn_cont.running_var f4 [6]
0.0010136255 0.0006635206 0.0010553194 0.00091670995 0.5767255 11.077803
00000000: a1db 843a 1df0 2d3a a552 8a3a 5d4f 703a
00000010: 48a4 133f ae3e 3141

layers.0.weight f4 [200, 23]
-0.04455296 -0.03299112 0.022594474 -0.008209712 0.01969844 -0.0050263857 0.0020853218 -0.06286805
-0.017296411 -0.031492595 -0.08395941 0.015054441 0.14762196 -0.013020895 -0.08308478 0.026314571
-0.079815395 0.07897425 0.054370146 0.05389259 -0.17813817 -0.007995838 -0.26381195 -0.08724529
0.138341 -0.07595615 0.1998987 0.08116843 0.02241779 -0.0017432843 0.11874566 0.13903113
-0.030456105 -0.1197907 -0.094336785 -0.2310029 0.072835356 -0.06021113 0.057355672 0.023170825
-0.08370198 0.06943334 0.06286321 -0.021337612 0.023703273 0.23191306 -0.096301354 -0.024246436
0.018783174 -0.02535857 -0.034736246 0.012089889 -0.041580677 0.02088564 0.023168143 -0.021444235
0.009219241 -0.092999764 -0.099446215 0.020008925 -0.10445487 0.02259119 0.030879935 0.035587374
-0.013627569 0.04150222 0.0020436188 -0.024324711 0.1976238 -0.22058275 0.074525096 0.05036966
0.12486039 -0.061704904 -0.19285914 -0.19228749 0.052020647 -0.051014446 -0.16818617 0.03052822
0.13517192 -0.053055998 -0.05751935 0.12646966 -0.18058132 0.1099281 0.15257253 -0.06454358
-0.14950588 0.017425606 0.11248681 -0.17428981 -0.0021355012 -0.016040135 0.012758577 -0.004947834
-0.03674019 -0.016922718 -0.01987096 0.02439611 0.017782018 0.021406788 -0.039889187 0.006302037
-0.019295694 0.017911632 -0.019619476 0.0065866536 -0.021996852 0.17964648 -0.10890415 -0.15241891
0.015577467 0.003625074 0.21650256 -0.004118991 -0.11633951 0.1139386 -0.07754991 0.16065262
-0.047721192 0.18222012 -0.0012121999 0.066971034 -0.18905963 -0.14135687 -0.11108686 0.0054428466
0.013582353 -0.023524778 0.015884535 0.121130936 -0.20691589 -0.1383626 -0.08258798 0.19295873
-0.21699813 -0.06008055 -0.021968344 0.06520468 -0.0151383495 0.01004812 0.059577562 0.008208666
-0.05997421 -0.003497355 -0.04535942 -0.02259555 0.0570232 -0.053570796 -0.20304571 -0.010663179
-0.09336825 -0.0031084225 0.09900447 0.031956833 -0.08024599 -0.01753339 0.15562318 -0.06683202
-0.32091993 0.09897524 -0.021955136 0.11825757 -0.11032129 0.02093298 0.046033658 0.07266469
-0.06720572 0.018379806 -0.17266247 0.10140156 0.049653973 -0.14997764 -0.048363272 0.13038659
0.012326074 -0.14804421 0.2538237 -0.20559385 -0.119074285 -0.07178903 -0.027038569 -0.00028047359
-0.102379195 0.07660926 -0.019573467 -0.10948977 0.15107436 -0.17240298 0.028495997 0.1475279
0.08644465 -0.14930177 -0.006104098 -0.08171043 0.09132019 -0.14931355 -0.1127726 0.24856828
0.05781578 -0.15136516 0.0020100907 -0.09019801 0.007280073 0.21293654 -0.03272633 0.08720761
-0.012771547 0.10877951 -0.03589767 -0.036911048 0.056979418 0.03380141 0.019633694 -0.08439589
-0.04004276 -0.0042816773 0.050077766 0.07909872 -0.10676487 -0.08596237 0.05332452 -0.0520368
0.16529673 -0.13584445 0.009322137 -0.010817484 0.03489008 0.22187437 0.087908074 -0.026066797
0.12727721 -0.15823898 0.16495825 -0.09775148 -0.012269803 -0.07108647 0.12349087 -0.16501504
-0.089504324 -0.03566868 0.08807023 0.12957376 0.012458798 -0.017875612 0.12823626 -0.054752864
0.23729572 0.18293326 -0.032414753 0.10323087 0.21317469 -0.019309774 -0.007372262 0.08071775
00000000: 2a7d 36bd b221 07bd 0c18 b93c 0782 06bc
00000010: 9f5e a13c 61b4 a4bb e5a9 083b f7c0 80bd
00000020: 34b1 8dbc 61fe 00bd e9f2 abbd e7a6 763c
00000030: 362a 173e 9855 55bc 5a28 aabd a891 d73c
00000040: 4176 a3bd 40bd a13d 3bb3 5e3d 7abe 5c3d
00000050: da69 36be fa00 03bc 5c12 87be a9ad b2bd
00000060: 43a9 0d3e e68e 9bbd 3fb2 4c3e a23b a63d
00000070: 83a5 b73c ea7e e4ba ed30 f33d 2d5e 0e3e
00000080: 157f f9bc d454 f5bd a533 c1bd 068c 6cbe
00000090: b42a 953d f29f 76bd c8ed 6a3d bed0 bd3c
000000a0: f26b abbd 1133 8e3d 6dbe 803d 37cc aebc
000000b0: 5e2d c23c 9e7a 6d3e a539 c5bd 76a0 c6bc
000000c0: 2cdf 993c c7bc cfbc 9847 0ebd ab14 463c
000000d0: 8050 2abd 5d18 ab3c 1ecb bd3c d2ab afbc
000000e0: 4d0c 173c a976 bebd 75aa cbbd c2e9 a33c
000000f0: 6fec d5bd 2911 b93c ebf7 fc3c 11c4 113d
00000100: 2b46 5fbc 3bfe 293d 3cee 053b 9e44 c7bc
00000110: e55d 4a3e 72e0 61be 9da0 983d 6b50 4e3d
00000120: ceb6 ff3d 48be 7cbd de7c 45be 03e7 44be
00000130: 9a13 553d 86f4 50bd ff38 2cbe 5116 fa3c
00000140: 826a 0a3e 3f51 59bd 6999 6bbd 4381 013e
00000150: 4fea 38be fc21 e13d f93b 1c3e 6d2f 84bd
00000160: 1218 19be 25c0 8e3c 7c5f e63d 0779 32be
00000170: c4f3 0bbb 9a66 83bc 5a09 513c 7121 a2bb
00000180: e27c 16bd 83a1 8abc 6cc8 a2bc 5ada c73c
00000190: 98ab 913c 4a5d af3c d862 23bd 5181 ce3b
000001a0: 0112 9ebc 6abb 923c 06b9 a0bc dbd4 d73b
000001b0: be32 b4bc 3ff5 373e 2409 dfbd b413 1cbe
000001c0: a238 7f3c a692 6d3b d9b2 5d3e 9af8 86bb
000001d0: 6943 eebd a458 e93d 7dd2 9ebd 1f82 243e
000001e0: 4c77 43bd e997 3a3e aee2 9eba 1c28 893d
000001f0: d998 41be dbbf 10be 8281 e3bd e859 b23b
00000200: 8488 5e3c 09b7 c0bc 4920 823c 7f13 f83d
00000210: c2e1 53be edae 0dbe e323 a9bd f996 453e
00000220: c234 5ebe 0617 76bd f5f6 b3bc 088a 853d
00000230: d706 78bc dfa0 243c 9a07 743d a47d 063c
00000240: 84a7 75bd e133 65bb cdca 39bd 4e1a b9bc
00000250: 2991 693d 0d6d 5bbd 37eb 4fbe 9db4 2ebc
00000260: da37 bfbd adb6 4bbb dbc2 ca3d 2be5 023d
00000270: 0258 a4bd 2fa2 8fbc af5b 1f3e 3adf 88bd
00000280: 9e4f a4be 88b3 ca3d 42db b3bc 0631 f23d
00000290: 21f0 e1bd a47b ab3c ca8d 3c3d 3ad1 943d
000002a0: 27a3 89bd 3f91 963c 6ece 30be 9fab cf3d
000002b0: f761 4b3d bd93 19be 9118 46bd 1084 053e
000002c0: 4df3 493c e798 17be 2ef5 813e 3287 52be
000002d0: 38dd f3bd 2106 93bd fd7f ddbc 870c 93b9
000002e0: 2fac d1bd 51e5 9c3d 8958 a0bc 2c3c e0bd
000002f0: 3db3 1a3e 688a 30be 7070 e93c 8e11 173e
00000300: e509 b13d 90e2 18be e304 c8bb cc57 a7bd
00000310: 1406 bb3d a7e5 18be 52f5 e6bd af88 7e3e
00000320: 3dd0 6c3d 78ff 1abe babb 033b bcb9 b8bd
00000330: ae8d ee3b 090c 5a3e 0b0c 06bd e799 b23d
00000340: c03f 51bc cbc7 de3d 6f09 13bd 0a30 17bd
00000350: 4063 693d 5973 0a3d d7d6 a03c c1d7 acbd
00000360: e103 24bd 504d 8cbb 581e 4d3d 82fe a13d
00000370: 8aa7 dabd 0a0d b0bd d06a 5a3d 8a24 55bd
00000380: 8c43 293e cf1a 0bbe e0bb 183c d13b 31bc
00000390: e7e8 0e3d 0933 633e 2609 b43d 098a d5bc
000003a0: f554 023e 6609 22be d1ea 283e ee31 c8bd
000003b0: 4907 49bc c895 91bd c8e8 fc3d b4f9 28be
000003c0: 0b4e b7bd 5219 12bd 2a5e b43d fcae 043e
000003d0: fc1f 4c3c e06f 92bc 5e50 033e 8a44 60bd
000003e0: a6fd 723e db52 3b3e 55c5 04bd b56a d33d
000003f0: 774a 5a3e 882f 9ebc 0493 f1bb 594f a53d

layers.0.bias f4 [200]
0.2893198 -0.15313214 -0.018278567 -0.04424116 0.049348313 -0.06919283 0.023000652 -0.033827104
-0.021196356 0.01631431 0.1050462 -0.047245953 0.1656418 -0.09909306 -0.032151356 0.1314011
-0.029476289 0.21590984 0.098724775 0.10031314 0.20071119 0.09238414 -0.11995927 -0.08372126
-0.15104228 0.08447624 0.2833619 -0.3019009 0.046317473 0.16198078 -0.03169303 0.020177606
0.15510736 -0.031539958 0.06801333 -0.008401782 0.08668246 -0.07815877 0.1133542 -0.15573798
-0.045443684 0.14216882 -0.21657288 0.23212065 0.119296245 -0.124902815 -0.20486346 -0.12131982
0.10890902 0.2725078 -0.124690615 -0.013608239 -0.09945978 0.13595349 0.25421384 -0.23503587
-0.024703482 -0.024300808 -0.073361464 0.12811673 0.16053873 -0.00798393 -0.13612542 0.07222017
0.18529198 -0.23609586 0.13275896 -0.21503933 0.2079723 -0.17716572 0.09993844 -0.22280608
-0.008819382 -0.08351845 -0.2118942 0.1996777 -0.077444054 -0.13697182 0.1294189 0.17352118
0.04974134 0.013602381 0.06642157 -0.06547286 0.07332279 -0.056733347 0.037583638 0.004456592
-0.14000706 0.30628783 0.0122873075 -0.16121425 0.10880055 -0.058210626 0.08301524 -0.043327007
0.28893316 0.024781931 0.12105746 -0.101123616 0.029189687 0.08233765 0.17583871 0.0074799587
0.106906205 0.019173454 0.27942708 0.12922616 -0.0621831 0.0066551594 0.21732086 0.07275957
0.066132985 0.02250406 0.23994239 0.05948924 -0.0016517243 0.055655483 -0.028873265 -0.10391305
-0.05575823 -0.061464045 -0.22979163 0.03467372 0.06918572 -0.2579947 -0.037739098 0.08137748
-0.018585809 0.1852015 0.15368496 0.016655805 0.16510433 0.05135115 -0.07406563 0.2608477
0.034068063 -0.15153189 0.328522 0.0040025646 0.2865279 -0.080533974 -0.022786472 0.21485999
-0.047548715 0.08345081 0.18285511 0.0292959 0.051484857 0.045610655 0.2063196 -0.05615157
-0.0016900252 -0.06371432 0.04292131 0.06977001 -0.04629793 0.12991679 0.0064967694 0.06630931
0.12145921 0.19456868 -0.2987428 0.12356278 -0.11076796 -0.2670854 0.23164803 -0.03386175
0.12732898 -0.3042574 -0.12673554 0.17547424 0.21687134 -0.40004578 0.17705698 -0.009685195
-0.08394213 0.29882422 -0.11414908 -0.13795662 -0.050789203 -0.12565461 0.17268293 0.09950811
-0.0044896286 -0.050392423 0.11430852 0.071719624 0.07949855 0.0075082174 -0.37427106 0.22035505
-0.09037283 -0.006296985 0.17217006 0.26655194 -0.10760515 -0.09151183 0.20781232 0.25604984
00000000: ba21 943e acce 1cbe efbc 95bc 3836 35bd
00000010: 7521 4a3d f8b4 8dbd dd6b bc3c 4a8e 0abd
00000020: fba3 adbc 96a5 853c 7622 d73d f984 41bd
00000030: 019e 293e 4df1 cabd 24b1 03bd 038e 063e
00000040: 4278 f1bc 7817 5d3e 3730 ca3d fa70 cd3d
00000050: 3c87 4d3e e533 bd3d 35ad f5bd 0d76 abbd
00000060: d4aa 1abe e101 ad3d d014 913e c192 9abe
00000070: 64b7 3d3d 4ade 253e 8dd0 01bd 824b a53c
00000080: 77d4 1e3e 0b30 01bd 934a 8b3d a1a7 09bc
00000090: 9386 b13d b511 a0bd 3f26 e83d c779 1fbe
000000a0: 2823 3abd b494 113e 48c5 5dbe 09b1 6d3e
000000b0: 9751 f43d 0ccd ffbd bac7 51be 8776 f8bd
000000c0: b10b df3d 2486 8b3e cb5d ffbd 17f5 5ebc
000000d0: 92b1 cbbd 6437 0b3e 5128 823e 3ead 70be
000000e0: f55e cabc 7d12 c7bc 893e 96bd 0831 033e
000000f0: 4464 243e 08cf 02bc 7664 0bbe 2be8 933d
00000100: 2ebd 3d3e 1dc3 71be f7f1 073e 4533 5cbe
00000110: b1f6 543e ee6a 35be 86ac cc3d 4727 64be
00000120: 2b7f 10bc b90b abbd cbfa 58be 5078 4c3e
00000130: fd9a 9ebd 5742 0cbe 6386 043e 89af 313e
00000140: 93bd 4b3d 85dc 5e3c 0808 883d a316 86bd
00000150: 422a 963d 3a61 68bd 4df1 193d 9a08 923b
00000160: 035e 0fbe c2d1 9c3e b450 493c 5915 25be
00000170: d3d2 de3d 446e 6ebd e503 aa3d a977 31bd
00000180: 0cef 933e 7a03 cb3c f9ec f73d e619 cfbd
00000190: 361f ef3c a4a0 a83d 100f 343e 711a f53b
000001a0: a4f1 da3d a611 9d3c 1111 8f3e dd53 043e
000001b0: b5b3 7ebd 8613 da3b 5c89 5e3e f802 953d
000001c0: bb70 873d 6f5a b83c 75b3 753e fdaa 733d
000001d0: ac7e d8ba 01f7 633d a087 ecbc 5dd0 d4bd
000001e0: be62 64bd b9c1 7bbd 7f4e 6bbe 0806 0e3d
000001f0: 3eb1 8d3d e217 84be 5094 1abd 3ca9 a63d
00000200: 4441 98bc 76a5 3d3e 975f 1d3e c171 883c
00000210: 1c11 293e 9555 523d b9af 97bd d48d 853e
00000220: f48a 0b3d 2d2b 1bbe 0934 a83e f227 833b
00000230: c9b3 923e ffee a4bd b2aa babc 4204 5c3e
00000240: 71c2 42bd 42e8 aa3d 5f3e 3b3e f5fd ef3c
00000250: c9e1 523d 3dd2 3a3d 7245 533e 30ff 65bd
00000260: d683 ddba a77c 82bd 41ce 2f3d 94e3 8e3d
00000270: e6a2 3dbd e808 053e dae2 d43b 2dcd 873d
00000280: 9bbf f83d 033d 473e d1f4 98be 7c0e fd3d
00000290: 50da e2bd 6bbf 88be 2435 6d3e 9eb2 0abd
000002a0: 8762 023e a0c7 9bbe f6c6 01be 85af 333e
000002b0: 8513 5e3e cdd2 ccbe 6d4e 353e a7ae 1ebc
000002c0: dae9 abbd 7dff 983e fec6 e9bd 8044 0dbe
000002d0: 5708 50bd 9aab 00be cbd3 303e e8ca cb3d
000002e0: bc1d 93bb 4968 4ebd 961a ea3d bde1 923d
000002f0: 23d0 a23d 7e07 f63b 75a0 bfbe c1a4 613e
00000300: 6415 b9bd f056 cebb 594d 303e 7f79 883e
00000310: 1760 dcbd 8e6a bbbd c1cc 543e f718 833e

layers.2.weight f4 [200]
1.0227269 0.9728862 0.92539215 0.9910918 1.0226609 0.9825376 0.9969098 1.0125576
0.98731905 1.013767 0.9679667 0.93452656 0.9796083 1.0509405 1.0087357 0.9892536
1.0290693 0.9965209 0.9998553 0.9779948 0.9664452 1.0046055 0.9805503 0.97683007
0.96571374 0.99895734 1.0407686 1.001223 0.99897224 1.0289974 0.95091605 0.9757283
1.006016 0.9711156 1.0045518 1.0748945 1.0193614 0.9836993 1.0085355 0.9837675
1.0100068 0.98707616 0.9784431 0.98368347 0.9911477 0.9280205 0.9149091 0.9794028
0.9993748 0.94664925 1.0522857 0.979711 0.9769778 1.0056067 1.0054706 0.96348816
1.0068479 1.0094836 0.9723318 1.0050613 1.0027684 0.9505187 0.96573246 1.024728
0.97202057 0.9898863 0.9630409 0.9689231 0.95425004 0.99851674 0.9647604 1.0420258
0.9845546 1.0103197 0.9772001 1.0392548 0.98842007 1.009299 1.0019901 0.9355117
0.9930684 1.0273709 1.0140837 1.0015801 0.9948072 1.1078374 0.9663635 1.0043377
0.9619771 1.0197535 0.9847767 1.0056443 0.98638177 1.0079596 1.0249571 0.9585631
1.0007215 0.96981186 1.0013733 0.9615046 1.0145992 0.9691897 1.0211776 0.9845861
1.0379966 1.0183192 1.0046371 0.9917549 0.9754116 0.99392134 0.9842634 1.0000815
1.0084507 0.9932968 1.0148109 0.9994147 1.008087 0.9964417 0.9663676 1.008833
0.990447 0.9576393 1.0204748 0.9759361 0.98524904 1.0142342 0.95453197 0.9898716
0.96293527 1.0303031 1.008214 0.98736155 1.0114187 0.96900564 0.98296636 1.0325478
0.9742645 1.0085118 1.0102825 0.94452184 1.0247781 0.9945972 0.953396 1.0032794
0.9952368 0.96206206 0.9880209 0.90604836 0.9837142 0.9465379 1.0249445 0.9636422
1.027692 1.0090293 1.0324609 0.95685506 0.9959759 0.9900292 0.9783491 1.0171038
0.9643929 0.9809666 1.0341693 0.99276006 0.98840564 1.0175008 0.9693665 0.9677587
0.96488506 0.9986109 1.0759882 0.9921646 1.0052056 0.95511 0.989985 0.9985247
1.0460229 1.0055124 1.0742123 0.9809324 0.9685829 0.98075706 0.98730063 1.0099015
0.9809727 1.0022013 1.0101316 0.9894141 0.96599126 0.99504435 0.9725955 1.0007703
0.9778208 0.99410015 0.99941415 0.98260325 1.0106254 1.0110079 1.0254097 0.9593229
00000000: b7e8 823f 120f 793f 80e6 6c3f 31b8 7d3f
00000010: 8de6 823f 9687 7b3f 7b35 7f3f 7d9b 813f
00000020: f1c0 7c3f 1ec3 813f aacc 773f 223d 6f3f
00000030: 9cc7 7a3f 3885 863f 401e 813f b93f 7d3f
00000040: 8bb8 833f fe1b 7f3f 84f6 7f3f de5d 7a3f
00000050: f468 773f ea96 803f 5805 7b3f 8911 7a3f
00000060: 0439 773f abbb 7f3f e837 853f 1328 803f
00000070: a5bc 7f3f 30b6 833f 3c6f 733f 54c9 793f
00000080: 22c5 803f 089b 783f 2795 803f 2596 893f
00000090: 6f7a 823f b8d3 7b3f b117 813f 30d8 7b3f
000000a0: e747 813f 06b1 7c3f 3f7b 7a3f aed2 7b3f
000000b0: dbbb 7d3f c092 6d3f 7c37 6a3f 24ba 7a3f
000000c0: 07d7 7f3f 9b57 723f 4cb1 863f 57ce 7a3f
000000d0: 381b 7a3f b8b7 803f 43b3 803f 29a7 763f
000000e0: 64e0 803f c236 813f bdea 783f d9a5 803f
000000f0: b75a 803f 3255 733f 3e3a 773f 492a 833f
00000100: 57d6 783f 3069 7d3f d989 763f 580b 783f
00000110: bb49 743f cb9e 7f3f 8afa 763f 1a61 853f
00000120: c50b 7c3f 2852 813f c929 7a3f 4d06 853f
00000130: 1909 7d3f b630 813f 3641 803f b27d 6f3f
00000140: bb39 7e3f e480 833f 7fcd 813f c733 803f
00000150: afab 7e3f 9ecd 8d3f 9963 773f 238e 803f
00000160: 2244 763f 4887 823f 531a 7c3f f4b8 803f
00000170: 8483 7c3f d204 813f cb31 833f 6464 753f
00000180: a417 803f 9745 783f 002d 803f 2a25 763f
00000190: 63de 813f d11c 783f f3b5 823f d60d 7c3f
000001a0: 13dd 843f 4958 823f f397 803f a6e3 7d3f
000001b0: 93b4 793f a171 7e3f b0f8 7b3f ac02 803f
000001c0: ea14 813f b348 7e3f 53e5 813f a4d9 7f3f
000001d0: ff08 813f ce16 7f3f de63 773f 7121 813f
000001e0: ef8d 7d3f d927 753f eb9e 823f f3d6 793f
000001f0: 4839 7c3f 6dd2 813f 355c 743f 3a68 7d3f
00000200: ed82 763f f9e0 833f 280d 813f bac3 7c3f
00000210: 2b76 813f c110 783f afa3 7b3f 872a 843f
00000220: 6669 793f ea16 813f f050 813f 2fcc 713f
00000230: ee2b 833f ec9d 7e3f c311 743f 766b 803f
00000240: d7c7 7e3f b349 763f f0ee 7c3f c9f2 673f
00000250: b2d4 7b3f 4f50 723f 6231 833f 41b1 763f
00000260: 698b 833f df27 813f ae27 843f 74f4 743f
00000270: 47f8 7e3f 8e72 7d3f 1675 7a3f 7530 823f
00000280: 74e2 763f a120 7b3f a95f 843f 8625 7e3f
00000290: 2708 7d3f 773d 823f 6728 783f 09bf 773f
000002a0: b502 773f f7a4 7f3f fbb9 893f 80fe 7d3f
000002b0: 94aa 803f 1782 743f a86f 7d3f 519f 7f3f
000002c0: 14e4 853f a1b4 803f ca7f 893f 631e 7b3f
000002d0: 0df5 773f e512 7b3f bcbf 7c3f 7444 813f
000002e0: 0721 7b3f 2248 803f fe4b 813f 3e4a 7d3f
000002f0: 344b 773f 3abb 7e3f 05fc 783f 3e19 803f
00000300: 7752 7a3f 597d 7e3f 9bd9 7f3f e38b 7b3f
00000310: 2c5c 813f b568 813f a040 833f 3096 753f

layers.2.bias f4 [200]
0.08297702 -0.036043394 -0.07009893 0.08445527 -0.011729878 0.08233341 0.052398443 -0.059686773
0.047075685 -0.058759153 -0.06225221 -0.06916924 -0.07281653 0.03243854 0.07940445 -0.020705989
0.062410228 0.08967868 -0.00091274973 0.043744043 0.062921435 0.035172638 -0.025704024 -0.057760037
-0.07677623 0.07283518 0.08589749 -0.0075897416 0.06196889 -0.01905667 -0.05136235 -0.034710936
-0.0669415 -0.09158981 0.04549653 0.09040898 0.08214906 -0.059297975 0.045563936 -0.039796017
-0.015637506 0.07382755 -0.00048342292 0.02377726 0.015627755 -0.052494187 -0.055673987 0.053812053
-0.036804974 0.04896041 0.02822239 0.04587224 -0.07641417 0.06950148 0.04993523 -0.0435996
0.037715692 -0.051422 -0.046550218 0.061555978 0.06310521 0.03384345 0.06476752 -0.018350009
0.026716648 -0.072301954 -0.043385614 -0.07315952 -0.048774872 -0.075018525 -0.0776578 -0.02822948
-0.038961068 0.08797336 -0.052230768 0.07028134 -0.07440461 -0.07364928 -0.06941649 -0.06917621
-0.06506535 -0.09014549 0.08316798 -0.056686766 0.04730395 0.17638642 0.041124415 0.11019299
-0.046062868 0.08658985 -0.04850466 -0.08180961 0.029373217 0.06607084 0.08528427 -0.094258524
0.07478998 -0.059358712 0.06820654 -0.040244013 -0.06534389 -0.08490368 -0.05023173 -0.033645224
0.065571666 0.06560417 0.08618085 -0.03996942 -0.059725657 -0.06285107 0.02918408 -0.0465389
0.060272917 0.0643662 0.061108712 0.03642943 -0.018103248 0.08525311 -0.057984486 0.036099248
-0.01695884 -0.041623272 -0.08061107 -0.06624086 -0.04986739 -0.08052886 -0.044555068 0.06828255
0.026045358 0.059629712 -0.06826107 -0.040463686 0.008109282 -0.05831144 0.0658135 0.09411017
-0.075609975 0.014943449 0.1085999 -0.043460093 0.056100026 0.055994254 -0.0789049 0.080067836
-0.060769066 -0.061333913 -0.053529542 -0.03635139 -0.030281542 -0.038252227 0.0424212 -0.066564225
0.056687497 0.057936605 0.0699956 -0.052478515 -0.06803609 0.081668235 0.075605236 -0.054693148
-0.07386492 0.076430805 0.0048782458 0.06708119 0.08629171 -0.091469854 0.001391931 -0.06438057
0.06790674 -0.008260408 -0.07465318 -0.064474225 -0.052957006 -0.08432345 -0.005473608 0.06854837
0.067027256 0.07417528 0.055840146 -0.065598145 -0.045983087 -0.046162073 0.010285747 0.06648698
-0.05256181 0.06635688 0.070295826 0.050450668 0.04185217 0.12118355 -0.05937509 -0.021666378
-0.042600647 0.056716517 -0.053118818 0.10025295 0.058183163 0.04588931 0.070192695 0.068585396
00000000: dbef a93d 3da2 13bd 0790 8fbd e2f6 ac3d
00000010: ad2e 40bc 6b9e a83d c09f 563d 1e7a 74bd
00000020: 6fd2 403d 70ad 70bd 2cfc 7ebd 9aa8 8dbd
00000030: d520 95bd 46de 043d cd9e a23d 9b9f a9bc
00000040: dea1 7f3d 75a9 b73d 9945 6fba f42c 333d
00000050: f4dc 803d 2f11 103d 3f91 d2bc ca95 6cbd
00000060: db3c 9dbd 9c2a 953d 06eb af3d 5eb3 f8bb
00000070: 17d3 7d3d bc1c 9cbc 5461 52bd 0e2d 0ebd
00000080: a018 89bd 7093 bbbd 925a 3a3d 5828 b93d
00000090: c43d a83d 6fe2 72bd 40a1 3a3d 2601 23bd
000000a0: 3a1a 80bc e632 973d ed73 fdb9 87c8 c23c
000000b0: c705 803c 2504 57bd 680a 64bd 076a 5c3d
000000c0: d0c0 16bd b68a 483d a432 e73c 88e4 3b3d
000000d0: 087f 9cbd cb56 8e3d e288 4c3d 7f95 32bd
000000e0: c57b 1a3d e09f 52bd 71ab 3ebd 1f22 7c3d
000000f0: 4e3d 813d 6e9f 0a3d d5a4 843d c252 96bc
00000100: dfdc da3c 0c13 94bd 1db5 31bd a9d4 95bd
00000110: 29c8 47bd 50a3 99bd 0d0b 9fbd 8341 e7bc
00000120: a495 1fbd 612b b43d eeef 55bd aaef 8f3d
00000130: 7261 98bd 6fd5 96bd 3c2a 8ebd 42ac 8dbd
00000140: fb40 85bd 339e b8bd f953 aa3d 6230 68bd
00000150: c9c1 413d a49e 343e 1372 283d ddac e13d
00000160: 6bac 3cbd 0556 b13d d3ac 46bd cc8b a7bd
00000170: 1aa0 f03c 2650 873d 85a9 ae3d 9d0a c1bd
00000180: 7d2b 993d 1f22 73bd dfaf 8b3d e8d6 24bd
00000190: 04d3 85bd fbe1 adbd c9bf 4dbd 93cf 09bd
000001a0: 704a 863d 7b5b 863d 967f b03d f9b6 23bd
000001b0: e4a2 74bd 10b8 80bd 7413 ef3c 939f 3ebd
000001c0: bce0 763d 6dd2 833d 214d 7a3d 0737 153d
000001d0: 434d 94bc 2f99 ae3d 2481 6dbd cedc 133d
000001e0: 44ed 8abc 2a7d 2abd 6b17 a5bd 4aa9 87bd
000001f0: c041 4cbd 51ec a4bd 607f 36bd b9d7 8b3d
00000200: 135d d53c 493e 743d 76cc 8bbd 40bd 25bd
00000210: cbdc 043c fad7 6ebd 3ac9 863d d5bc c03d
00000220: 67d9 9abd 5ed5 743c a069 de3d 3603 32bd
00000230: 24c9 653d 3b5a 653d e498 a1bd 9bfa a33d
00000240: fce8 78bd 4539 7bbd cb41 5bbd 32e5 14bd
00000250: ff10 f8bc 5eae 1cbd dac1 2d3d d352 88bd
00000260: 2631 683d ef4e 6d3d da59 8f3d b6f3 56bd
00000270: 8156 8bbd ad41 a73d ebd6 9a3d ec05 60bd
00000280: 7e46 97bd c187 9c3d b1d9 9f3b dd61 893d
00000290: b5b9 b03d 8c54 bbbd 7471 b63a f6d9 83bd
000002a0: b012 8b3d aa56 07bc c4e3 98bd 100b 84bd
000002b0: 72e9 58bd c6b1 acbd f45b b3bb 1663 8c3d
000002c0: 9645 893d 36e9 973d a3b8 643d 5258 86bd
000002d0: c358 3cbd 7114 3dbd 8d85 283c 532a 883d
000002e0: 0d4b 57bd 1ee6 873d 42f7 8f3d 5ca5 4e3d
000002f0: 2e6d 2b3d 152f f83d 4b33 73bd b07d b1bc
00000300: 047e 2ebd 944f 683d 1e93 59bd 6b51 cd3d
00000310: 7851 6e3d 6ef6 3b3d 30c1 8f3d 8076 8c3d

layers.2.running_mean f4 [200]
0.46520767 0.148104 0.14151374 0.20741075 0.11563557 0.29858512 0.1848341 0.14096564
0.29253757 0.13055927 0.35549968 0.18599863 0.51072294 0.04755383 0.17289461 0.25153974
0.1272598 0.35438612 0.17826526 0.28690138 0.31315958 0.35456488 0.062147 0.09897664
0.1870091 0.4030073 0.33926567 0.046496514 0.25634712 0.50317824 0.18483803 0.18791778
0.32930687 0.2938571 0.4014354 0.112018764 0.40025365 0.09105373 0.20674935 0.056241095
0.17445774 0.21222635 0.14462586 0.37538177 0.1680458 0.1073914 0.11216066 0.20959707
0.3026856 0.38556665 0.086576805 0.17283276 0.114517905 0.33948645 0.21261016 0.068321995
0.21839747 0.36750177 0.112689756 0.2699537 0.49963203 0.33869198 0.21482813 0.23264742
0.45629376 0.09827841 0.18867274 0.091586694 0.34921396 0.07113195 0.1804155 0.076068014
0.24885021 0.11947935 0.03275683 0.33581388 0.09439496 0.0840029 0.41590396 0.16435818
0.12178707 0.2337564 0.36676916 0.07589016 0.31190398 0.08673705 0.1675228 0.104201905
0.06918016 0.4622693 0.26892033 0.09564137 0.41678184 0.19057293 0.31702438 0.22859482
0.5443666 0.19185568 0.2948924 0.11638481 0.19519658 0.2510397 0.13435848 0.20775999
0.28815055 0.25576577 0.3733508 0.30599472 0.2229605 0.21142337 0.2999986 0.2104487
0.4254841 0.33441663 0.44647998 0.4462591 0.15155067 0.38522035 0.13941471 0.26325664
0.080089554 0.24616016 0.0707514 0.14966014 0.17782952 0.020925453 0.17328699 0.21775752
0.22682796 0.43914843 0.38793468 0.09690852 0.42457312 0.20082702 0.23855656 0.29978487
0.22354646 0.07201708 0.3940142 0.13881168 0.3706603 0.21100584 0.09916923 0.44357657
0.08054269 0.13922814 0.26537246 0.14680392 0.2558443 0.19715102 0.31649676 0.22131103
0.2325871 0.39212117 0.26060966 0.22368683 0.13992715 0.43063736 0.30833232 0.17525578
0.23614329 0.27792707 0.04856128 0.32775337 0.21455535 0.04876309 0.21328361 0.13399905
0.20639583 0.04840493 0.030097675 0.27107632 0.21920659 0.022746231 0.21253532 0.37903333
0.10145443 0.30611074 0.23608565 0.20547065 0.057613425 0.1799908 0.2867145 0.32327473
0.20488878 0.17716822 0.29762483 0.37338582 0.2500175 0.09415145 0.038257144 0.1754754
0.105385795 0.23750184 0.24224597 0.364165 0.27305654 0.19004859 0.3764158 0.39413595
00000000: b32f ee3e 93a8 173e fae8 103e 7c63 543e
00000010: 57d2 ec3d 26e0 983e 2645 3d3e 4c59 103e
00000020: 7cc7 953e 54b1 053e 0e04 b63e 6d76 3e3e
00000030: bdbe 023f cec7 423d 490b 313e d1c9 803e
00000040: 6550 023e 1972 b53e 2b8b 363e bde4 923e
00000050: 7456 a03e 8789 b53e da8d 7e3d 44b4 ca3d
00000060: 507f 3f3e f956 ce3e 3bb4 ad3e 2173 3e3d
00000070: ee3f 833e 4ad0 003f 2e46 3d3e 856d 403e
00000080: e99a a83e 7074 963e f188 cd3e 186a e53d
00000090: 0cee cc3e 617a ba3d 1ab6 533e 105d 663d
000000a0: 0da5 323e dd51 593e cd18 143e 0a32 c03e
000000b0: 3314 2c3e 06f0 db3d 7db4 e53d 9da0 563e
000000c0: 9bf9 9a3e fe68 c53e 2e4f b13d 12fb 303e
000000d0: 5d88 ea3d 2bd1 ad3e 7ab6 593e 67ec 8b3d
000000e0: 96a3 5f3e 3129 bc3e e3c9 e63d 5f37 8a3e
000000f0: c5cf ff3e 0969 ad3e e8fb 5b3e 203b 6e3e
00000100: 569f e93e 3146 c93d 6d33 413e ce91 bb3d
00000110: 2ccc b23e a1ad 913d d7be 383e 8cc9 9b3d
00000120: 97d2 7e3e 97b1 f43d 072c 063d ccef ab3e
00000130: 2552 c13d b609 ac3d 5df1 d43e 834d 283e
00000140: 806b f93d d65d 6f3e 2bc9 bb3e 4d6c 9b3d
00000150: e1b1 9f3e 32a3 b13d 198b 2b3e cf67 d53d
00000160: 54ae 8d3d 90ae ec3e edaf 893e 9fdf c33d
00000170: 6e64 d53e 8d25 433e 0551 a23e c314 6a3e
00000180: 9c5b 0b3f d175 443e 23fc 963e 295b ee3d
00000190: 9de1 473e 4788 803e 4595 093e 09bf 543e
000001a0: 7888 933e bbf3 823e d627 bf3e 57ab 9c3e
000001b0: c24f 643e 5e7f 583e 6b99 993e dd7f 573e
000001c0: 0dd9 d93e a838 ab3e 0699 e43e 137c e43e
000001d0: 1930 1b3e 9a3b c53e bbc2 0e3e 93c9 863e
000001e0: fe05 a43d 6911 7c3e 1ce6 903d 8240 193e
000001f0: f118 363e db6b ab3c 2572 313e d4fb 5e3e
00000200: 9745 683e 10d8 e03e 609f c63e f977 c63d
00000210: a661 d93e 99a5 4d3e 2c48 743e 677d 993e
00000220: 5de9 643e b17d 933d 3bbc c93e a624 0e3e
00000230: 30c7 bd3e ea11 583e 3d19 cb3d 781c e33e
00000240: 91f3 a43d d291 0e3e e6de 873e c453 163e
00000250: 06fe 823e f5e1 493e dd0b a23e 5c9f 623e
00000260: 502b 6e3e 1bc4 c83e a16e 853e 290e 653e
00000270: 1049 0f3e 807c dc3e bcdd 9d3e 4076 333e
00000280: 8ccf 713e 754c 8e3e 31e8 463d 4acf a73e
00000290: 66b4 5b3e cebb 473d 0567 5a3e 0c37 093e
000002a0: 6e59 533e 3f44 463d 668f f63c 84ca 8a3e
000002b0: b177 603e 4e56 ba3c dca2 593e a810 c23e
000002c0: 57c7 cf3d 8cba 9c3e 70c0 713e e666 523e
000002d0: 0efc 6b3d 824f 383e 3ecc 923e 4484 a53e
000002e0: 5dce 513e 966b 353e 4862 983e 6d2c bf3e
000002f0: 4b02 803e 7ad2 c03d 86b3 1c3d d3af 333e
00000300: 82d4 d73d af33 733e 540f 783e d673 ba3e
00000310: 11ce 8b3e 199c 423e 92b9 c03e 30cc c93e

layers.2.running_var f4 [200]
0.07547274 0.08500065 0.06320968 0.10856821 0.10146458 0.12407804 0.044405423 0.10461307
0.18474032 0.120299175 0.20781067 0.113802254 0.25485486 0.030572549 0.069938295 0.072489485
0.04130592 0.16962208 0.16746287 0.09688434 0.06768632 0.15508088 0.04223974 0.08423103
0.16226079 0.21285199 0.075176165 0.05443432 0.13041924 0.32383564 0.12196716 0.020285456
0.22118835 0.1981226 0.20906992 0.10061876 0.119859464 0.08264517 0.08406723 0.047657356
0.071598195 0.020310538 0.08014603 0.18499443 0.11350992 0.098702565 0.14022124 0.10017299
0.18982916 0.17236425 0.098902054 0.076995604 0.062933266 0.060354386 0.0840338 0.06340492
0.07311013 0.2472766 0.0896033 0.030003827 0.1577246 0.15780188 0.114927076 0.02684486
0.22195154 0.058649294 0.06999169 0.08243811 0.15550846 0.04738279 0.13159047 0.029459137
0.17248857 0.03025087 0.011010854 0.05535092 0.06321201 0.061911143 0.25903374 0.07424638
0.09228864 0.17718427 0.20133774 0.054743852 0.13754977 0.0638145 0.052232303 0.037196413
0.035977937 0.12194181 0.1295462 0.062692136 0.31798747 0.05200887 0.124013364 0.1032994
0.14261039 0.16327968 0.07769048 0.13983373 0.11751442 0.13538073 0.048429064 0.11729704
0.12736644 0.07908494 0.10235361 0.20777692 0.14795542 0.2223959 0.13682748 0.12008503
0.17199695 0.1809534 0.16723917 0.20429163 0.12577009 0.13219215 0.11098349 0.117445126
0.07544425 0.1704346 0.056267582 0.09012995 0.13225006 0.005961296 0.08575374 0.05194999
0.10554104 0.17324045 0.279419 0.0743311 0.25006187 0.1414652 0.116428904 0.034044884
0.13402274 0.045564707 0.07912402 0.11528403 0.039457727 0.11060184 0.068905875 0.21605082
0.040844318 0.10332563 0.22412413 0.10377707 0.15151931 0.09857544 0.038709305 0.123947226
0.08711759 0.21867904 0.117739104 0.13387582 0.09168568 0.08328213 0.14661428 0.11025134
0.15166886 0.08662223 0.051986106 0.12498859 0.04526482 0.034509186 0.08611976 0.05973578
0.07239004 0.025665253 0.006706779 0.17994544 0.074912004 0.023228588 0.12634543 0.10131408
0.116654076 0.08804156 0.11992484 0.15824774 0.042457838 0.08997332 0.19559938 0.06999334
0.19714533 0.065071866 0.10037693 0.11786252 0.1509917 0.04646551 0.03990992 0.064523526
0.09339304 0.105896235 0.12114057 0.069716305 0.12669645 0.0672923 0.045983702 0.14479564
00000000: 7491 9a3d d214 ae3d 1474 813d 0259 de3d
00000010: a9cc cf3d a11c fe3d 76e2 353d 613f d63d
00000020: 912c 3d3e 6a5f f63d 52cc 543e 2811 e93d
00000030: 567c 823e 4873 fa3c cf3b 8f3d 5e75 943d
00000040: 6530 293d 69b1 2d3e 637b 2b3e 4c6b c63d
00000050: 209f 8a3d 86cd 1e3e 9403 2d3d 5181 ac3d
00000060: b127 263e dff5 593e f6f5 993d 86f6 5e3d
00000070: 9f8c 053e c9cd a53e ebc9 f93d af2d a63c
00000080: 337f 623e a7e0 4a3e 6d16 563e 3511 ce3d
00000090: e178 f53d df41 a93d 712b ac3d 5c34 433d
000000a0: 13a2 923d 4962 a63c 9a23 a43d 2e6f 3d3e
000000b0: e477 e83d 9224 ca3d 2896 0f3e 7f27 cd3d
000000c0: 9362 423e 4180 303e 298d ca3d dfaf 9d3d
000000d0: 28e3 803d 2936 773d ea19 ac3d 70da 813d
000000e0: c4ba 953d 1436 7d3e ef81 b73d 96ca f53c
000000f0: 8f82 213e d196 213e e35e eb3d c0e9 db3c
00000100: 4447 633e 3e3a 703d ce57 8f3d 50d5 a83d
00000110: 9c3d 1f3e 7514 423d a7bf 063e 4a54 f13c
00000120: d8a0 303e acd0 f73c de66 343c a5b7 623d
00000130: 4c75 813d 8a96 7d3d 12a0 843e 7c0e 983d
00000140: d401 bd3d cb6f 353e 7b2b 4e3e 173b 603d
00000150: d9d9 0c3e 2db1 823d 8af1 553d 445b 183d
00000160: 9a5d 133d a1bc f93d c2a7 043e bc64 803d
00000170: 41cf a23e 4107 553d b8fa fd3d a38e d33d
00000180: 7508 123e ca32 273e 301c 9f3d 9330 0f3e
00000190: 66ab f03d 3fa1 0a3e 8e5d 463d 6e39 f03d
000001a0: 596c 023e 49f7 a13d c59e d13d 79c3 543e
000001b0: a081 173e c0bb 633e 811c 0c3e 24ef f53d
000001c0: f81f 303e d94b 393e bf40 2b3e d331 513e
000001d0: e0c9 003e 615d 073e 504b e33d 1287 f03d
000001e0: 8482 9a3d 6886 2e3e d678 663d 0d96 b83d
000001f0: 8f6c 073e fa56 c33b a89f af3d 83c9 543d
00000200: e725 d83d f265 313e 0210 8f3e e73a 983d
00000210: 1c08 803e 41dc 103e 4772 ee3d a672 0b3d
00000220: 423d 093e 0fa2 3a3d c60b a23d 091a ec3d
00000230: 6d9e 213d 3883 e23d 861e 8d3d 6d3c 5d3e
00000240: 5f4c 273d 639c d33d cc80 653e 1389 d43d
00000250: e127 1b3e ece1 c93d a68d 1e3d 0bd8 fd3d
00000260: b56a b23d 66ed 5f3e 3321 f13d be16 093e
00000270: b4c5 bb3d d28f aa3d 0e22 163e 74cb e13d
00000280: 154f 1b3e ff66 b13d 62ef 543d 05fa ff3d
00000290: 9b67 393d 8159 0d3d 8f5f b03d 81ad 743d
000002a0: 3b41 943d f03f d23c 8ac4 db3b 9e43 383e
000002b0: 776b 993d e149 be3c b260 013e c27d cf3d
000002c0: 55e8 ee3d 224f b43d 289b f53d b20b 223e
000002d0: 45e8 2d3d ef43 b83d 344b 483e ab58 8f3d
000002e0: 77e0 493e 6644 853d 6b92 cd3d e861 f13d
000002f0: 919d 1a3e 9e52 3e3d 9678 233d e924 843d
00000300: da44 bf3d 20e0 d83d 8c18 f83d 6cc7 8e3d
00000310: b7bc 013e 8cd0 893d 6859 3c3d 4f45 143e

layers.4.weight f4 [100, 200]
-0.03444229 0.07575294 -0.022834038 0.02384279 0.08109622 -0.0057165483 -0.08153798 0.08502243
-0.055815246 -0.022878787 0.013446932 0.019801969 0.03864614 0.0576122 -0.06641648 -0.053969674
-0.1369394 0.027538866 -0.06102711 -0.09052769 0.02621968 0.01618434 0.026742568 0.015472448
0.052640054 -0.02014591 -0.010093633 0.019013371 0.014908494 0.12062658 -0.09878169 -0.034506988
0.06323045 0.013852834 -0.036802635 -0.014334849 -0.07600714 0.06306604 -0.13348283 0.07598481
0.060094364 0.032714754 0.03655578 0.050679132 -0.025620429 0.04129699 -0.0078241415 0.013494823
-0.031148508 0.078068145 -0.021195965 0.014100036 0.08343804 0.016826935 0.05412515 0.046830885
-0.12110123 0.15042603 -0.046475954 0.0048757335 -0.062091198 0.032724682 0.02950205 0.039518286
0.097499214 0.024418844 -0.03981842 0.058894385 -0.0013561926 -0.0064715203 0.013278465 -0.11551888
-0.058955263 0.02033745 0.078349754 -0.039388835 0.000606164 0.057868343 0.0080784755 0.007333583
-0.02506243 0.03946392 -0.035121407 0.032631345 0.033151045 -0.011174011 0.027596226 -0.08873691
0.039777145 -0.03931612 0.029927785 -0.026275098 -0.04738689 -0.02585438 -0.0334333 0.017320251
-0.025949089 -0.015192835 -0.062143 -0.036078703 0.08115337 0.028658181 0.028024403 0.021379877
0.029116934 -0.07721639 -0.031382896 0.016386379 0.0031269556 -0.024501609 0.06722615 0.026379652
-0.07599878 0.027140683 0.017456416 0.09078924 0.07726513 -0.13811141 0.03508222 -0.14769678
-0.013502167 0.026707318 -0.0054494157 -0.0013221055 0.021560112 0.076562576 0.00775169 -0.039514538
-0.14745621 -0.02460012 0.044453938 0.036037154 -0.07975239 0.049373083 -0.054350957 -0.08539922
-0.03136342 -0.052883804 -0.100783885 0.058998905 0.030858042 -0.036264956 -0.010505898 0.07930099
0.12621352 -0.014939812 0.07774262 -0.014586402 0.040759288 -0.016285822 0.030048653 0.062331
-0.020498045 0.0039937138 0.045340005 0.015246158 0.020541875 -0.027246168 0.09464523 0.050677277
-0.010207166 -0.16454402 0.035909273 -0.03629037 -0.07356147 0.0011752499 0.028017139 0.03522917
-0.06356009 0.0030532572 0.0062795714 0.054312646 -0.022977162 -0.01957118 0.023417192 -0.06614287
0.041964516 -0.018546652 0.012102954 0.0868511 -0.04019736 -0.013214686 -0.04246888 -0.0505079
-0.044894814 0.047215153 0.014193986 -0.049865387 -0.037072506 -0.0005112052 0.0039893514 -0.0012978417
-0.001475076 0.040321745 -0.0066885324 -0.0628714 -0.002221349 -0.05723496 -0.008780819 0.065002345
-0.018288169 0.042130996 0.04311309 0.001941543 -0.00306481 -0.011663297 0.011618238 0.094409235
0.05679862 0.020257907 0.076263934 -0.018414559 -0.010678788 -0.007783334 0.015380119 -0.09093196
-0.11221163 0.025545085 0.025433559 -0.12613037 -0.06956783 0.0007873143 0.053260736 -0.019557407
-0.012672735 0.0065280236 -0.06999376 0.062301554 -0.060475077 -0.018481364 0.0036965793 -0.033014834
0.0074318172 -0.0135631515 -0.039521296 0.031926952 -0.040210366 0.04842717 -0.02385181 -0.0336221
0.02627469 0.034613825 0.004227657 -0.08952615 -0.01591901 0.07613595 0.05822726 -0.008893665
0.009902569 0.012010549 0.002828695 0.016158305 -0.066516325 -0.04196959 0.059086278 -0.04614511
00000000: 5c13 0dbd 5b24 9b3d 730e bbbc f451 c33c
00000010: c615 a63d e251 bbbb 62fd a6bd 3d20 ae3d
00000020: 879e 64bd 4b6c bbbc 8550 5c3c bd37 a23c
00000030: 6a4b 1e3d c5fa 6b3d 5d05 88bd 4e0f 5dbd
00000040: d839 0cbe 3099 e13c 90f7 79bd 9566 b9bd
00000050: a8ca d63c 0595 843c 3b13 db3c 2780 7d3c
00000060: 199d 573d 0909 a5bc c45f 25bc eec1 9b3c
00000070: c242 743c 120b f73d 0e4e cabd 3357 0dbd
00000080: f77e 813d fff6 623c 5cbe 16bd b7dc 6abc
00000090: a2a9 9bbd c528 813d b9af 08be ed9d 9b3d
000000a0: 8225 763d e8ff 053d 83bb 153d ec94 4f3d
000000b0: efe1 d1bc 0827 293d d430 00bc 6419 5d3c
000000c0: 282b ffbc 31e2 9f3d 29a3 adbc d603 673c
000000d0: 90e1 aa3d a4d8 893c 55b2 5d3d bed1 3f3d
000000e0: ec03 f8bd 4809 1a3e 925d 3ebd 9ec4 9f3b
000000f0: 5753 7ebd 510a 063d 48ae f13c eddd 213d
00000100: abad c73d 070a c83c a418 23bd 3d3b 713d
00000110: 46c2 b1ba 0c0f d4bb eb8d 593c 2a95 ecbd
00000120: 137b 71bd b99a a63c d675 a03d 3056 21bd
00000130: fae6 1e3a 5b07 6d3d 955b 043c 8e4e f03b
00000140: ba4f cdbc eba4 213d 77db 0fbd 72a8 053d
00000150: 64c9 073d 3313 37bc 7b11 e23c b2bb b5bd
00000160: 5ced 223d f109 21bd 1d2b f53c e03e d7bc
00000170: c118 42bd 91cc d3bc 5bf1 08bd 33e3 8d3c
00000180: 2f93 d4bc 5eeb 78bc a989 7ebd 43c7 13bd
00000190: bd33 a63d 90c4 ea3c 6f93 e53c da24 af3c
000001a0: a386 ee3c a023 9ebd 5a8b 00bd ba3c 863c
000001b0: 9ced 4c3b 99b7 c8bc ddad 893d 241a d83c
000001c0: 40a5 9bbd 2356 de3c c200 8f3c b6ef b93d
000001d0: 2e3d 9e3d 146d 0dbe 60b2 0f3d d33d 17be
000001e0: 3138 5dbc 4ec9 da3c 0391 b2bb 804a adba
000001f0: d59e b03c d7cc 9c3d e401 fe3b ffd9 21bd
00000200: c3fe 16be 3186 c9bc 5515 363d b29b 133d
00000210: 3955 a3bd 6e3b 4a3d 1c9f 5ebd c9e5 aebd
00000220: ee76 00bd b09c 58bd c867 cebd d6a8 713d
00000230: 01ca fc3c 908a 14bd ee20 2cbc 8f68 a23d
00000240: 1e3e 013e 1dc6 74bc 8637 9f3d cefb 6ebc
00000250: 36f3 263d d869 85bc 9828 f63c ca4e 7f3d
00000260: 84eb a7bc b3dd 823b 71b6 393d 05cb 793c
00000270: 6f47 a83c 5b33 dfbc 5cd5 c13d fa92 4f3d
00000280: f53b 27bc 3a7e 28be 9a15 133d 36a5 14bd
00000290: 65a7 96bd d80a 9a3a 3384 e53c 764c 103d
000002a0: cb2b 82bd 2819 483b ddc4 cd3b f076 5e3d
000002b0: 9a3a bcbc bd53 a0bc 69d5 bf3c ea75 87bd
000002c0: fce2 2b3d 26ef 97bc 784b 463c fdde b13d
000002d0: fda5 24bd 6982 58bc d9f3 2dbd 5fe1 4ebd
000002e0: a0e3 37bd ad64 413d e48d 683c a63f 4cbd
000002f0: 57d9 17bd 6602 06ba 1bb9 823b 571c aaba
00000300: 5657 c1ba 6a28 253d 7a2b dbbb b8c2 80bd
00000310: 0d94 11bb 356f 6abd 6ddd 0fbc f31f 853d
00000320: 12d1 95bc 8d91 2c3d 5a97 303d 5f7b fe3a
00000330: fbda 48bb 6a17 3fbc 6c5a 3e3c a159 c13d
00000340: aba5 683d e9f3 a53c 4430 9c3d 21da 96bc
00000350: 15f6 2ebc 560b ffbb e5fc 7b3c 893a babd
00000360: 36cf e5bd ed43 d13c 0a5a d03c 5228 01be
00000370: 9479 8ebd c563 4e3a ee27 5a3d db36 a0bc
00000380: 4ea1 4fbc 08e9 d53b e358 8fbd ea2f 7f3d
00000390: b7b4 77bd 3b66 97bc 4f42 723b 903a 07bd
000003a0: 9a86 f33b fb37 5ebc 15e1 21bd d6c5 023d
000003b0: a0b3 24bd 915b 463d df64 c3bc 54b7 09bd
000003c0: 053e d73c 3ac7 0d3d 2888 8a3b 7c59 b7bd
000003d0: 9568 82bc 2aed 9b3d b57f 6e3d bcb6 11bc
000003e0: 633e 223c e5c7 443c a161 393b 6c5e 843c
000003f0: b639 88bd 4ee8 2bbd 7404 723d a802 3dbd

layers.4.bias f4 [100]
-0.0688749 0.038107462 -0.014965354 0.049641658 -0.0095506655 0.2256326 -0.0914038 0.15168756
-0.044820763 0.029673692 0.15007491 -0.04640994 0.039354112 0.09399867 0.107643135 -0.21294522
0.08032214 0.16965823 -0.069102116 -0.0011813394 -0.1418707 -0.06380432 -0.11020832 0.17741947
0.08166491 -0.11416908 0.23492467 0.0023256838 0.08810476 0.2111189 0.060534425 -0.078319445
0.16304873 0.14409423 -0.05150312 -0.12244569 -0.020242171 -0.07523724 0.021983892 -0.029053513
0.003250898 0.0051071686 0.19127978 0.13817872 0.14042018 0.039015174 -0.1826467 -0.0073866816
0.1428048 0.008014308 -0.092288956 -0.07187574 -0.12750413 -0.024901032 -0.030989926 -0.07596844
0.07783135 0.037243 -0.22454472 -0.044486377 0.05559754 0.13603294 0.113036804 0.09882229
-0.03889386 -0.001245973 -0.093964465 -0.14217113 0.1783537 0.172579 0.14285499 0.13750508
0.136637 0.12957296 0.16924688 0.0951348 -0.08783345 0.14469256 0.18760489 -0.099292114
0.16019863 0.020416016 0.10170917 -0.18803082 0.13785021 0.18946983 0.005942302 0.12531918
-0.087349266 -0.06498999 0.10842503 -0.023871219 0.21903305 0.09234744 0.15016 0.1266044
-0.09047286 0.12081047 0.15494579 0.12639597
00000000: 490e 8dbd 9216 1c3d 3f31 75bc 0d55 4b3d
00000010: 657a 1cbc 3b0c 673e ea31 bbbd fc53 1b3e
00000020: fa95 37bd 3e16 f33c 3dad 193e 5918 3ebd
00000030: c731 213d 6082 c03d 0174 dc3d 500e 5abe
00000040: ef7f a43d e3ba 2d3e 6985 8dbd 2cd7 9aba
00000050: 8e46 11be d7ab 82bd e6b4 e1bd 73ad 353e
00000060: ef3f a73d 7bd1 e9bd 1890 703e 806a 183b
00000070: 4570 b43d 8e2f 583e f2f2 773d f265 a0bd
00000080: 3ff6 263e 708d 133e f0f4 52bd cec4 fabd
00000090: e9d2 a5bc fb15 9abd 9017 b43c a201 eebc
000000a0: 050d 553b 095a a73b d9de 433e b97e 0d3e
000000b0: 4fca 0f3e 60ce 1f3d bd07 3bbe fa0b f2bb
000000c0: 6c3b 123e 724e 033c fe01 bdbd 9733 93bd
000000d0: 7190 02be 40fd cbbc 96de fdbc 5795 9bbd
000000e0: 0b66 9f3d 1e8c 183d 0def 65be 5937 36bd
000000f0: 3fba 633d 384c 0b3e d77f e73d 5763 ca3d
00000100: 2b4f 1fbd eb4f a3ba 7170 c0bd 4f95 11be
00000110: 5aa2 363e 8db8 303e 9448 123e 22ce 0c3e
00000120: 92ea 0b3e c6ae 043e 0e4f 2d3e 09d6 c23d
00000130: 06e2 b3bd 492a 143e 7f1b 403e aa59 cbbd
00000140: 1c0b 243e 7d3f a73c e64c d03d 278b 40be
00000150: 9b28 0d3e 6104 423e a4b7 c23b ac53 003e
00000160: 2ce4 b2bd 7919 85bd f10d de3d 938d c3bc
00000170: 334a 603e a820 bd3d 8bc3 193e 95a4 013e
00000180: d649 b9bd 7b6b f73d 1caa 1e3e f26d 013e

layers.6.weight f4 [100]
0.8638541 0.8211269 0.9173716 0.67161417 0.8922802 0.644059 0.8350721 0.7095933
0.7554592 0.6998361 0.64026433 0.89098185 0.68439 0.6186156 0.6563887 0.8522853
0.65778255 0.678452 0.79773355 0.8669893 0.8547266 0.8601361 0.85562557 0.6523745
0.69005674 0.8718086 0.645366 0.8965756 0.6389916 0.66274077 0.6383086 0.90306604
0.6953161 0.62140363 0.826739 0.9048514 0.8358376 0.9102718 0.8828518 0.8703216
0.85323036 0.84083325 0.6708443 0.66409826 0.6769284 0.7399898 0.8433759 0.8660541
0.64197963 0.67833227 0.8390089 0.84620935 0.862187 0.8760646 0.7501002 0.835843
0.68721265 0.705309 0.83570886 0.8694105 0.68721265 0.659303 0.6403909 0.64564466
0.8821284 0.88633573 0.8383008 0.8652483 0.6774927 0.6330219 0.6395766 0.69738203
0.6753383 0.70357597 0.69830704 0.65882444 0.89728427 0.647003 0.6780214 0.8892145
0.631012 0.6388486 0.6805981 0.84508216 0.6742837 0.67124265 0.8184796 0.6560883
0.835508 0.6874369 0.6535142 0.6743879 0.6685165 0.65998465 0.69766885 0.67625546
0.90733993 0.644355 0.6374657 0.6622475
00000000: 8b25 5d3f 5f35 523f ddd8 6a3f e8ee 2b3f
00000010: 7a6c 643f 0de1 243f 49c7 553f e8a7 353f
00000020: c665 413f 7528 333f 5de8 233f 6317 643f
00000030: 2f34 2f3f 985d 1e3f 1709 283f 5f2f 5a3f
00000040: 7064 283f 08af 2d3f 4438 4c3f 03f3 5d3f
00000050: 5dcf 5a3f e131 5c3f 470a 5b3f 0402 273f
00000060: 8fa7 303f d92e 5f3f b536 253f fb85 653f
00000070: f494 233f 61a9 293f 3168 233f 562f 673f
00000080: 3c00 323f 4f14 1f3f 2ba5 533f 57a4 673f
00000090: 74f9 553f 9307 693f 9302 623f 65cd 5e3f
000000a0: 4e6d 5a3f d940 573f 74bc 2b3f 5802 2a3f
000000b0: 2e4b 2d3f f96f 3d3f 7ce7 573f b9b5 5d3f
000000c0: c758 243f 2fa7 2d3f 4ac9 563f 2da1 583f
000000d0: 4ab8 5c3f c545 603f 9106 403f cff9 553f
000000e0: 2bed 2f3f 218f 343f 04f1 553f b091 5e3f
000000f0: 2bed 2f3f 15c8 283f a8f0 233f f848 253f
00000100: 2bd3 613f e6e6 623f e29a 563f ea80 5d3f
00000110: 2970 2d3f b90d 223f 4bbb 233f a187 323f
00000120: f9e2 2c3f 8e1d 343f 40c4 323f b8a8 283f
00000130: 6cb4 653f fda1 253f cf92 2d3f 90a3 633f
00000140: 018a 213f 958b 233f ad3b 2e3f 4e57 583f
00000150: db9d 2c3f 8fd6 2b3f e187 513f 67f5 273f
00000160: dae3 553f ddfb 2f3f b54c 273f afa4 2c3f
00000170: e623 2b3f c1f4 283f 6d9a 323f 141f 2d3f
00000180: 6e47 683f 73f4 243f f430 233f 0d89 293f
